…
                          layers.MaxPooling2D(2, padding='same'),
                          layers.Dropout(0.3),
                          layers.GlobalAveragePooling2D(),
                          layers.Dense(512 , activation = 'relu'),
                          layers.Dense(50 , activation = 'softmax')
])

model.compile(loss = 'categorical_crossentropy', optimizer = 'adam', metrics = 'acc')
model.summary()

Model: "sequential"
_________________________________________________________________
 Layer (type)                Output Shape              Param #   
=================================================================
 conv2d (Conv2D)             (None, 38, 214, 32)       320       
                                                                 
 max_pooling2d (MaxPooling2D  (None, 19, 107, 32)      0         
 )                                                               
                                                                 
 conv2d_1 (Conv2D)           (None, 17, 105, 128)      36992     
                                                                 
 max_pooling2d_1 (MaxPooling  (None, 9, 53, 128)       0         
 2D)                                                             
                                                                 
 dropout (Dropout)           (None, 9, 53, 128)        0         
                                                                 
 conv2d_2 (Conv2D)           (None, 7, 51, 128)        147584    
                                                                 
 max_pooling2d_2 (MaxPooling  (None, 4, 26, 128)       0         
 2D)                                                             
                                                                 
 dropout_1 (Dropout)         (None, 4, 26, 128)        0         
                                                                 
 global_average_pooling2d (G  (None, 128)              0         
 lobalAveragePooling2D)                                          
                                                                 
 dense (Dense)               (None, 512)               66048     
                                                                 
 dense_1 (Dense)             (None, 50)                25650     
                                                                 
=================================================================
Total params: 276,594
Trainable params: 276,594
Non-trainable params: 0

batch_size = 8
callback = tf.keras.callbacks.EarlyStopping(
    monitor='val_loss', min_delta=0, patience=8, verbose=0, mode='auto',
    baseline=None, restore_best_weights=False)

history = model.fit(X_train,y_train ,
…
    tf.keras.layers.Conv3D(64, (3, 3, 3), activation='relu', input_shape=(10, 128, 128, 3)),
    tf.keras.layers.MaxPooling3D((2, 2, 2)),
    tf.keras.layers.Conv3D(61, (3, 3, 3), activation='relu'),
    tf.keras.layers.MaxPooling3D((2, 2, 2)),
    tf.keras.layers.Flatten(),
    tf.keras.layers.Dense(512, activation='relu'),
    tf.keras.layers.Dropout(0.5),
    tf.keras.layers.Dense(len(class_names), activation='softmax')
])

Model: "sequential_2"
_________________________________________________________________
 Layer (type)                Output Shape              Param #   
=================================================================
 conv3d_4 (Conv3D)           (None, 8, 126, 126, 64)   5248      
                                                                 
 max_pooling3d_4 (MaxPooling  (None, 4, 63, 63, 64)    0         
 3D)                                                             
                                                                 
 conv3d_5 (Conv3D)           (None, 2, 61, 61, 61)     105469    
                                                                 
 max_pooling3d_5 (MaxPooling  (None, 1, 30, 30, 61)    0         
 3D)                                                             
                                                                 
 flatten_2 (Flatten)         (None, 54900)             0         
                                                                 
 dense_4 (Dense)             (None, 512)               28109312  
                                                                 
 dropout_2 (Dropout)         (None, 512)               0         
                                                                 
 dense_5 (Dense)             (None, 101)               51813     
                                                                 
=================================================================
Total params: 28,271,842
Trainable params: 28,271,842
Non-trainable params: 0
_________________________________________________________________

# Compile the model
model.compile(optimizer=tf.keras.optimizers.Adam(),
              loss=tf.keras.losses.SparseCategoricalCrossentropy(),
…
